…
_lr=0.1, box=0.05, cls=0.5, cls_pw=1.0, obj=1.0, obj_pw=1.0, iou_t=0.2, anchor_t=4.0, fl_gamma=0.0, hsv_h=0.015, hsv_s=0.7, hsv_v=0.4, degrees=0.0, translate=0.1, scale=0.5, shear=0.0, perspective=0.0, flipud=0.0, fliplr=0.5, mosaic=1.0, mixup=0.0\n","Downloading https://github.com/ultralytics/yolov5/releases/download/v4.0/yolov5x.pt to yolov5x.pt...\n","100% 168M/168M [00:02<00:00, 75.9MB/s]\n","\n","Overriding model.yaml nc=80 with nc=14\n","\n","                 from  n    params  module                                  arguments                     \n","  0                -1  1      8800  models.common.Focus                     [3, 80, 3]                    \n","  1                -1  1    115520  models.common.Conv                      [80, 160, 3, 2]               \n","  2                -1  1    309120  models.common.C3                        [160, 160, 4]                 \n","  3                -1  1    461440  models.common.Conv                      [160, 320, 3, 2]              \n","  4                -1  1   3285760  models.common.C3                        [320, 320, 12]                \n","  5                -1  1   1844480  models.common.Conv                      [320, 640, 3, 2]              \n","  6                -1  1  13125120  models.common.C3                        [640, 640, 12]                \n","  7                -1  1   7375360  models.common.Conv                      [640, 1280, 3, 2]             \n","  8                -1  1   4099840  models.common.SPP                       [1280, 1280, [5, 9, 13]]      \n","  9                -1  1  19676160  models.common.C3                        [1280, 1280, 4, False]        \n"," 10                -1  1    820480  models.common.Conv                      [1280, 640, 1, 1]             \n"," 11                -1  1         0  torch.nn.modules.upsampling.Upsample    [None, 2, 'nearest']          \n"," 12           [-1, 6]  1         0  models.common.Concat                    [1]                           \n"," 13                -1  1   5332480  models.common.C3                        [1280, 640, 4, False]         \n"," 14                -1  1    205440  models.common.Conv                      [640, 320, 1, 1]              \n"," 15                -1  1         0  torch.nn.modules.upsampling.Upsample    [None, 2, 'nearest']          \n"," 16           [-1, 4]  1         0  models.common.Concat                    [1]                           \n"," 17                -1  1   1335040  models.common.C3                        [640, 320, 4, False]          \n"," 18                -1  1    922240  models.common.Conv                      [320, 320, 3, 2]              \n"," 19          [-1, 14]  1         0  models.common.Concat                    [1]                           \n"," 20                -1  1   4922880  models.common.C3                        [640, 640, 4, False]          \n"," 21                -1  1   3687680  models.common.Conv                      [640, 640, 3, 2]              \n"," 22          [-1, 10]  1         0  models.common.Concat                    [1]                           \n"," 23                -1  1  19676160  models.common.C3                        [1280, 1280, 4, False]        \n"," 24      [17, 20, 23]  1    127851  models.yolo.Detect                      [14, [[10, 13, 16, 30, 33, 23], [30, 61, 62, 45, 59, 119], [116, 90, 156, 198, 373, 326]], [320, 640, 1280]]\n","Model Summary: 607 layers, 87331851 parameters, 87331851 gradients, 217.6 GFLOPS\n","\n","Transferred 788/794 items from yolov5x.pt\n","Scaled weight_decay = 0.0005\n","Optimize
…
